dqn_model_update_20.pth (torch, 73495 bytes, 6 tensors)

fc1.weight f4 [128, 7]
0	0xbdfe3b84	-0.124136955
1	0xbe3f7aca	-0.18699184
2	0x3e05919a	0.13043824
3	0x3d3696c8	0.04457739
4	0x3e0439ee	0.12912723
5	0x3ea7f7d5	0.32806268
6	0xbe8627d0	-0.2620225
7	0x3c598f60	0.013278812
8	0x3dd7a254	0.105290085
9	0xbe588462	-0.2114425
10	0x3e194392	0.14967182
11	0xbe0c4a81	-0.13700296
12	0xbced4810	-0.028965026
13	0x3e0030c2	0.125186
14	0x3d3d6380	0.04623747
15	0x3e6b102a	0.22955385
16	0x3c36c080	0.011154294
17	0x3e909a6b	0.28242812
18	0xbe307af1	-0.17234398
19	0xbebd09cc	-0.36921537
20	0x3ea5512d	0.32288495
21	0xbc284b00	-0.010271788
22	0xbe92d2d0	-0.28676462
23	0xbe77583c	-0.24154752
24	0xbc4fde80	-0.0126873255
25	0x3b251800	0.0025191307
26	0xbdc3db04	-0.09563258
27	0xbe3b3f5e	-0.18285891
28	0x3bea5080	0.0071507096
29	0xbebb72bc	-0.36610973
30	0xbdb1e39c	-0.08685991
31	0x3e08b4aa	0.13350168
32	0xbcd5dcc0	-0.026106238
33	0xbe3af5bc	-0.18257803
34	0x3eb85d5b	0.36008725
35	0xbe22a602	-0.1588364
36	0x3e1bcb1e	0.15214202
37	0xbd78caa8	-0.060740143
38	0xbe9bf080	-0.30456924
39	0x3cbe4440	0.023225904
40	0x3e60909a	0.21930161
41	0xbdadee34	-0.08492699
42	0x3ea1974d	0.31560746
43	0x3e3179fa	0.17331687
44	0xbe977b55	-0.29586282
45	0x3c8bc950	0.017063767
46	0x3eb89887	0.3605387
47	0xbea9870e	-0.3311085
48	0xbd0e3458	-0.034717888
49	0x3d05c488	0.03265813
50	0xbe191224	-0.14948326
51	0x3dcf6c9c	0.101281375
52	0xbbef1240	-0.0072958767
53	0x3cea4380	0.02859664
54	0xbdb92ee8	-0.0904215
55	0x3eb12e09	0.34605435
56	0x3cb8a670	0.022540301
57	0xbdd8c598	-0.10584563
58	0xbdd9c1ac	-0.10632643
59	0x3e8365e9	0.2566369
60	0x3d8931dc	0.06698963
61	0x3e3ee91e	0.18643615
62	0x3e8375a7	0.256757
63	0x3eb64e67	0.3560669
64	0xbe86772c	-0.26262796
65	0xbeb41160	-0.35169506
66	0x3cf52760	0.029926002
67	0xbe8ba9e1	-0.27278045
68	0xbc0e84c0	-0.008698642
69	0x3e0f99f2	0.14023569
70	0xbe6971e3	-0.2279735
71	0xbe30f941	-0.17282583
72	0x3e922d8d	0.28550377
73	0x3e2e2f66	0.17010269
74	0x3cf0cb30	0.029393762
75	0x3d9f0cf0	0.077661395
76	0x3e6d50a2	0.2317529
77	0xbe71547d	-0.23567386
78	0x3dc58128	0.09643775
79	0x3e8a7ae7	0.27046892
80	0x3c8861b0	0.016648144
81	0x3e59315a	0.21210232
82	0x3e955f71	0.2917438
83	0xbea61a34	-0.32441866
84	0x3eb91595	0.36149278
85	0xbe9e8588	-0.3096125
86	0x3e67105e	0.22564837
87	0xbe63283e	-0.2218332
88	0x3dc97ac8	0.09837872
89	0x3da55b30	0.08074033
90	0xbe70c3e8	-0.23512232
91	0xbde31fb8	-0.11090034
92	0x3e87a4b7	0.26492855
93	0x3c10e8a0	0.008844525
94	0xbe486de5	-0.19573171
95	0x3e317432	0.17329481
96	0xbe9420ae	-0.28931183
97	0xbe5455ee	-0.20735905
98	0x3e833875	0.2562901
99	0xbd5b94e8	-0.053608805
100	0x3e3aa542	0.18227103
101	0x3eb305e7	0.3496544
102	0xbe28ecf2	-0.16496637
103	0x3e73c206	0.23804483
104	0xbe228e17	-0.15874515
105	0x3e83d5cd	0.25749055
106	0xbd4a4280	-0.049379826
107	0x3ebc69a5	0.3679935
108	0xbe07d084	-0.13263136
109	0x3e8dd66d	0.27702656
110	0xbe9752a9	-0.29555252
111	0x3dbf50fc	0.093416184
112	0xbeadc9a8	-0.33942914
113	0xbe8031c8	-0.2503798
114	0x3e21ad02	0.15788653
115	0x3e6bc06a	0.23022619
116	0xbe6de127	-0.2323042
117	0x3d81b5d0	0.06333506
118	0xbd59f180	-0.053208828
119	0xbeb8158b	-0.35953936
120	0x3e2a0652	0.16603974
121	0x3df40528	0.11915046
122	0xbdbf05bc	-0.093272656
123	0x3e1eef1a	0.15520898
124	0x3d2ea390	0.042636454
125	0x3dcbc0b8	0.099488676
126	0x3ea23d7f	0.31687543
127	0x3ea54c27	0.32284662
128	0x3dc5f41c	0.09665701
129	0xbe70d19b	-0.23517458
130	0x3ceb0370	0.028688163
131	0xbe88a5ad	-0.266889
132	0xbe21c3fc	-0.15797418
133	0xbea533be	-0.3226604
134	0x3ea2ccd7	0.31796905
135	0x3c419440	0.011815131
136	0x3e85563b	0.2604235
137	0x3e34ff4e	0.17675516
138	0xbd7d89c0	-0.061898947
139	0xbd2e3c30	-0.042537868
140	0x3eb4015f	0.35157296
141	0x3e090f5e	0.13384768
142	0x3e3503f2	0.17677286
143	0xbe754c72	-0.23954943
144	0xbe9e7f1c	-0.30956352
145	0x3e588746	0.21145353
146	0xbdd1a3b0	-0.10236299
147	0x3e4f77fa	0.20260611
148	0x3ebc2769	0.36748818
149	0x3e9bbae1	0.30416015
150	0xbe8500a1	-0.25977042
151	0x3dd77518	0.10520381
152	0x3e1b8af6	0.15189728
153	0xbe152f5c	-0.14568847
154	0x3ebc9381	0.36831287
155	0x3e245cde	0.16051051
156	0xbe4cb0bf	-0.19989298
157	0x3d941a10	0.072315335
158	0xbdb578f0	-0.088609576
159	0xbb684b80	-0.0035445392
160	0xbe184e4b	-0.14873616
161	0xbeb6bd2d	-0.35691205
162	0x3da5823c	0.08081481
163	0x3cd64990	0.026158124
164	0xbe428d10	-0.18999124
165	0xbeb50858	-0.35357928
166	0x3e96dd67	0.29465792
167	0x3e88c69d	0.2671403
168	0x3dc8e69c	0.0980961
169	0xbe10741d	-0.14106794
170	0x3d7fc100	0.06243992
171	0x3e81e7c1	0.25372127
172	0xbd0184f0	-0.03162092
173	0xbe697d19	-0.22801627
174	0xbd55dc28	-0.05221191
175	0x3d0ca3e8	0.034336
176	0xbe864cbe	-0.26230425
177	0x3e022a5a	0.12711468
178	0x3ebac9cb	0.3648208
179	0xbca2a250	-0.019852787
180	0xbe4cf02f	-0.20013498
181	0x3ea60465	0.32425228
182	0x3e4f407a	0.2023944
183	0xbe250b2f	-0.16117547
184	0x3e7957c6	0.24349889
185	0x3bd16000	0.006389618
186	0x3e9b9a99	0.30391386
187	0x3d655ca0	0.055996537
188	0xbd7f8340	-0.06238103
189	0x3dca0928	0.09865028
190	0xbe444a66	-0.19169006
191	0xbe15ebb1	-0.1464069
192	0x3e5af622	0.21382955
193	0x3e4015ba	0.18758288
194	0xbd2df7b0	-0.04247254
195	0xbeb15e9c	-0.34642494
196	0x3c04b6e0	0.008100241
197	0x3e946505	0.28983322
198	0x3eade453	0.3396326
199	0x3ea3e14d	0.32007828
200	0x3e9ddb87	0.3083155
201	0x3d31db80	0.043422222
202	0x3d311768	0.043235213
203	0xbe229ac3	-0.1587935
204	0xbe6dc289	-0.2321874
205	0x3dcc4394	0.09973827
206	0x3d451f28	0.048125416
207	0xbd6ddc48	-0.058071405
208	0xbe530667	-0.20607911
209	0xbe8809a7	-0.26569864
210	0x3e1c00de	0.15234706
211	0x3e98a2f1	0.29811814
212	0xbe2b2f8a	-0.16717353
213	0x3e9098e7	0.28241655
214	0x3e45ad72	0.19304445
215	0xbe81d02c	-0.25354135
216	0xbe92ff82	-0.28710562
217	0xbe5836a7	-0.21114598
218	0x3ec06e99	0.3758438
219	0xbe5709c5	-0.2099982
220	0x3c8c77d0	0.017146975
221	0xbe6c92c8	-0.23102868
222	0x3e37bdc6	0.17943487
223	0xbebec4ee	-0.3725962
224	0xbe77a1bc	-0.2418279
225	0x3ea0d9d7	0.314162
226	0x3cec01b0	0.028809398
227	0xbebace03	-0.364853
228	0x3d87a644	0.066235095
229	0xbe3b56eb	-0.18294875
230	0x3dcc5630	0.099773765
231	0xbe0ed090	-0.13946748
232	0x3e8a5395	0.27016893
233	0xbe623fea	-0.22094694
234	0x3e9809f7	0.29695103
235	0xbdb53c28	-0.088493645
236	0x3db38dcc	0.0876728
237	0xbe9bb36c	-0.30410326
238	0x3e59b856	0.21261725
239	0x3de86138	0.11346668
240	0x3e6fceea	0.23418775
241	0xbd1c59b0	-0.03817147
242	0xbcda8000	-0.026672363
243	0xbe894542	-0.26810652
244	0x3ec17fb9	0.37792757
245	0x3e9e3959	0.30903128
246	0xbd1e1b48	-0.038600236
247	0x3e78cbaa	0.24296442
248	0x3e99ac29	0.3001416
249	0x3e70e346	0.23524198
250	0xbde40a50	-0.111347795
251	0xbebf2d67	-0.37339327
252	0x3e9dd773	0.30828437
253	0x3e412f22	0.18865636
254	0xbe57935f	-0.21052311
255	0xbe6952ee	-0.22785541

fc1.bias f4 [128]
0	0xbd9fc9b4	-0.07802144
1	0xbd8e18bc	-0.069383115
2	0xbebf1f9e	-0.3732881
3	0xbea55188	-0.32288766
4	0x3e2d49ca	0.1692268
5	0xbe7be5f5	-0.2459944
6	0x3ea60e01	0.3243256
7	0x3c92a9b0	0.017903179
8	0x3d882110	0.06646931
9	0x3e9818bb	0.29706368
10	0x3eb74e2f	0.35801837
11	0xbe319891	-0.17343356
12	0x3e2f5a46	0.1712428
13	0x3b5f0980	0.0034032762
14	0x3eb60e39	0.35557726
15	0x3eb00b7f	0.3438377
16	0xbb4ee400	-0.0031569004
17	0x3e2c800a	0.16845718
18	0xbd1b2088	-0.03787282
19	0x3e802ef3	0.2503582
20	0x3ec0b241	0.37635997
21	0xbd6015e0	-0.05470836
22	0x3d4745b0	0.048650444
23	0xbddbbaa0	-0.10728955
24	0x3e73aede	0.23797175
25	0x3c417260	0.011807054
26	0xbdace8b0	-0.08442819
27	0xbe93e03e	-0.2888202
28	0x3d8f7330	0.07004392
29	0xbe5dd284	-0.21662337
30	0x3e960203	0.2929841
31	0xbb49d600	-0.003079772
32	0xbe987e30	-0.29783773
33	0xbd41c838	-0.047310084
34	0xbe808a50	-0.25105524
35	0xbe29ea68	-0.16593325
36	0xbe95bf54	-0.29247534
37	0xbeb02316	-0.34401768
38	0x3a562000	0.00081682205
39	0x3e56a53e	0.20961472
40	0xbe1cd8d8	-0.15317094
41	0x3d58bbb8	0.052913398
42	0xbe87dd74	-0.26536143
43	0x3e9392ef	0.2882304
44	0x3e87a381	0.2649193
45	0xbd44ad10	-0.048016608
46	0x3e195ec6	0.1497756
47	0xbe4cb5ee	-0.19991276
48	0x3d18b4e0	0.03728187
49	0xbe894651	-0.2681146
50	0xbe74fff8	-0.2392577
51	0x3e902c13	0.28158626
52	0xbeb77741	-0.3583317
53	0xbe8f7366	-0.2801773
54	0x3df895e8	0.12137967
55	0x3e03b112	0.12860516
56	0x3e3934c6	0.18086538
57	0x3d9f2cfc	0.07772252
58	0x3e971fb9	0.2951639
59	0x3e9c6bb7	0.3055093
60	0x3e8ee7d1	0.27911237
61	0x3e1592e6	0.14606819
62	0x3d57f268	0.05272141
63	0x3c43a260	0.011940569
64	0xbe9b904a	-0.3038352
65	0x3e0f8a56	0.14017615
66	0x3c7f91e0	0.015598744
67	0xbe1de21a	-0.15418282
68	0x3e3aeaba	0.18253604
69	0xbd70aa88	-0.05875638
70	0xbe9842c3	-0.29738435
71	0xbe092d4e	-0.13396189
72	0x3ead657f	0.33866498
73	0xbd6ff620	-0.058584332
74	0xbe60b123	-0.21942572
75	0x3c130c00	0.008975029
76	0x3e417a4a	0.18894306
77	0xbd909818	-0.070602596
78	0xbdaa3e84	-0.08312705
79	0x3ea6d0e5	0.3258125
80	0x3e076f82	0.1322613
81	0xbe09b3e2	-0.13447526
82	0xbe937fa6	-0.28808326
83	0xbda6aeb4	-0.08138791
84	0xbdbce06c	-0.092224926
85	0xbe8a0319	-0.26955488
86	0x3ebae85f	0.3650541
87	0xbe0ed020	-0.13946581
88	0x3e4855f2	0.19564036
89	0x3daab71c	0.083357066
90	0x3be431c0	0.0069639385
91	0x3ebd89c5	0.37019172
92	0x3e25cb5e	0.1619086
93	0x3e91de79	0.28490046
94	0xbe287068	-0.1644913
95	0x3e228ff6	0.15875229
96	0xbe2505b1	-0.16115452
97	0xbe41ef68	-0.18938982
98	0xbe30f6f9	-0.17281713
99	0x3e3bd74e	0.18343851
100	0xbe57ce89	-0.2107488
101	0x3e52f536	0.20601353
102	0xbea1a1f0	-0.3156886
103	0x3e2449c6	0.16043767
104	0x3e8b25e7	0.27177355
105	0x3dad2ad8	0.084554374
106	0xbe865cb9	-0.26242617
107	0xbe60f7bf	-0.21969508
108	0x3e832865	0.25616756
109	0x3e4f1326	0.20222148
110	0xbe584959	-0.2112173
111	0xbd1bc1f8	-0.03802678
112	0xbd5184a8	-0.0511519
113	0x3d1df7e0	0.03856647
114	0x3e19aafa	0.15006629
115	0xbd2a15f8	-0.041524857
116	0xbd8b0974	-0.067889124
117	0xbc344200	-0.011002064
118	0xbe48e0c5	-0.19616993
119	0x3e59400a	0.21215835
120	0xbe8cd25e	-0.27504247
121	0xbe0de3c4	-0.13856417
122	0x3d4b9730	0.04970473
123	0xbd958f78	-0.07302755
124	0x3bc55480	0.006022036
125	0x3e9e2cfb	0.30893692
126	0xbc727b20	-0.014799863
127	0xbe880e70	-0.26573515

fc2.weight f4 [128, 128]
0	0x3db14ad1	0.08656848
1	0x3d93da95	0.072194256
2	0xbd8e0fab	-0.06936582
3	0x3d43891a	0.047738172
4	0x3c3ebef0	0.011642203
5	0xbd279735	-0.040915687
6	0x3c3a4b70	0.011370525
7	0x3d0c76ec	0.0342931
8	0x3b940960	0.004517719
9	0x3c8b387c	0.016994707
10	0xbd42c33c	-0.04754947
11	0x3955b400	0.00020380318
12	0xbba95d20	-0.005168572
13	0xbd7edb16	-0.062220655
14	0x3d66307e	0.05619859
15	0x3d9672f3	0.073461436
16	0x3d17b562	0.037038215
17	0xbce992d4	-0.028512396
18	0xbc93ac24	-0.018026419
19	0xbbeaf840	-0.007170707
20	0xbd9c5d29	-0.076349564
21	0x3d55883a	0.05213187
22	0xbd70825f	-0.05871808
23	0xbd8f32a0	-0.06992078
24	0xbdacddb7	-0.08440726
25	0x3c73d490	0.014882222
26	0xba692a80	-0.00088945776
27	0xbc2d2610	-0.010568157
28	0x3ab10400	0.001350522
29	0x3d4e5376	0.050372563
30	0xbc318fd8	-0.010837518
31	0x3d809fbb	0.06280466
32	0xbdb4329a	-0.08798714
33	0xbcfe5094	-0.031044282
34	0xbbc94850	-0.0061426535
35	0x3d86b787	0.06577974
36	0x3d0320fa	0.03201387
37	0xbc14c180	-0.009079337
38	0xbd009a73	-0.031397294
39	0xbcf3fd80	-0.029783964
40	0xbb8c9230	-0.004289888
41	0xbca21ac0	-0.019788146
42	0xbd748098	-0.05969295
43	0xbd5ed661	-0.054403666
44	0x3c027b60	0.007963985
45	0x3d5dc70e	0.05414491
46	0xbda732d6	-0.08163993
47	0xbd9d2f23	-0.07675006
48	0xbd8db7ad	-0.06919799
49	0x3b39b4e0	0.002833657
50	0xbd8d5c21	-0.06902338
51	0x3d11a506	0.03555777
52	0x3d8a9b39	0.067678876
53	0xbcd97684	-0.02654577
54	0x3d3fa996	0.04679259
55	0x3cebacf0	0.028768986
56	0x3c590710	0.013246313
57	0x3daba3fd	0.08380888
58	0x3d9c9ed3	0.07647481
59	0xbd95effa	-0.073211625
60	0x3d9c6015	0.07635514
61	0xbd52a804	-0.051429763
62	0x3d5e2c3a	0.054241396
63	0x3d45676a	0.048194326
64	0xbdb23c5a	-0.087029174
65	0xbcc64320	-0.02420193
66	0xbd8c3c7f	-0.06847476
67	0xbcb33340	-0.021875024
68	0x3d9236eb	0.07139381
69	0xbca570ac	-0.020195328
70	0x3c89797c	0.016781561
71	0xbca44990	-0.020054609
72	0xbd2495f9	-0.040182088
73	0x3c417a70	0.0118089765
74	0x3d2fb26a	0.04289476
75	0x3d83e535	0.06440202
76	0xbc5d86b8	-0.013520889
77	0xbd5d88fb	-0.054085713
78	0xbd097a08	-0.033563644
79	0x3d8fea5d	0.07027123
80	0x3d23da46	0.040003084
81	0xbcb2d590	-0.02183035
82	0xbda038bc	-0.07823321
83	0x3ced9f0c	0.029006504
84	0x3d11d832	0.03560657
85	0xbd7344a0	-0.059391618
86	0xbd98036f	-0.0742253
87	0x3cce5b0c	0.025189899
88	0x3d88a83d	0.06672714
89	0xbc220050	-0.00988777
90	0x3ce17734	0.02752266
91	0x3a470380	0.0007591769
92	0x3d0cd2e0	0.034380794
93	0x3d8d3ff1	0.068969615
94	0x3d2a7692	0.041616984
95	0x3da1939d	0.07889483
96	0x3cc2c86c	0.02377721
97	0xbbeb82f0	-0.00718724
98	0xbd546bbf	-0.051860567
99	0xbbb2fd50	-0.005462326
100	0xbd81cc2e	-0.06337772
101	0xbd7fa250	-0.062410653
102	0xbdaba01d	-0.083801486
103	0xbb814b90	-0.0039457753
104	0x3d772036	0.060333453
105	0xbd886f78	-0.06661886
106	0xbd2d9ea8	-0.042387635
107	0x3b80ab10	0.0039266422
108	0xbd3b6b1e	-0.04575645
109	0xbd575885	-0.052574653
110	0x3cdb8a90	0.02679947
111	0x3bc07170	0.005872898
112	0x3db2af65	0.0872486
113	0xbd5f5455	-0.054523785
114	0x3db39c61	0.08770061
115	0x3c5c1170	0.013431892
116	0xbc182180	-0.009285331
117	0x3d4d8b52	0.050181694
118	0x3d7885b6	0.06067439
119	0xbd3206ab	-0.04346339
120	0x3d282266	0.04104843
121	0x3d1e4e4e	0.038648896
122	0xbc94383c	-0.01809322
123	0x3b4b1940	0.0030990392
124	0xbda5575f	-0.08073305
125	0xbda09c3b	-0.078422986
126	0x3da2d9c5	0.079516925
127	0xbcd2aae8	-0.02571626
128	0x3ce92e38	0.028464422
129	0x3b616260	0.0034390911
130	0x3d38689e	0.045021646
131	0xbc864a40	-0.016392827
132	0x3cd3f578	0.025873885
133	0x3d4cea92	0.05002839
134	0xbd086ed8	-0.033308834
135	0x3d8a1691	0.067425855
136	0xbd65ff5b	-0.05615173
137	0xbd04282a	-0.032264866
138	0xbc9d5878	-0.019207224
139	0xbbe60ca0	-0.007020548
140	0xbdabf31c	-0.08395979
141	0xbd3cf217	-0.046129312
142	0x3c789920	0.015173227
143	0x3d93804d	0.07202206
144	0xbd46789e	-0.048454873
145	0xbd694c9a	-0.05695782
146	0x3d70825e	0.058718078
147	0xbca2d160	-0.019875228
148	0xbd6f1839	-0.05837271
149	0x3d90a725	0.0706313
150	0xbd95e148	-0.073183596
151	0xbd757ee3	-0.05993546
152	0x3d598caa	0.053112663
153	0x3d91abf9	0.07112879
154	0xbc82e47c	-0.01597809
155	0xbd62f3c0	-0.05540824
156	0x3c279920	0.010229379
157	0x3c6560f0	0.0140001625
158	0xbd15a339	-0.036532614
159	0xbce9972e	-0.02851447
160	0xbd89527a	-0.06705184
161	0x3d84f7a3	0.064925455
162	0x3ccd382c	0.025051199
163	0x3dad1975	0.08452121
164	0xbd6c2240	-0.05764985
165	0x3d07555a	0.033040382
166	0x3d824991	0.06361688
167	0xbcb44930	-0.022007555
168	0x3d20ca4e	0.039255433
169	0x3d1aad62	0.037763007
170	0xbd6f776a	-0.05846349
171	0xbd8c7f0c	-0.0686017
172	0xbc26e058	-0.010185324
173	0x3c1937c0	0.009351671
174	0xbcb14544	-0.021639474
175	0x3d9735fd	0.07383344
176	0xbcaa7510	-0.020807773
177	0x3c9f9128	0.019478396
178	0x3babf180	0.005247295
179	0xbcb6e3a8	-0.022325352
180	0x3ce58344	0.028016694
181	0x3d87eae9	0.066366024
182	0x3d974679	0.073864885
183	0xbcf0f1fc	-0.029412262
184	0x3d52f1aa	0.0515
185	0x3d5c10f6	0.053727113
186	0x3d482242	0.048860796
187	0x3d163b66	0.03667774
188	0x3d4509b6	0.048104964
189	0xbd24bb40	-0.040217638
190	0x3b2dea40	0.002653733
191	0xbd97790d	-0.073961355
192	0x3d8a617d	0.06756876
193	0x3da122f1	0.07867993
194	0xbd87629b	-0.066106044
195	0x3cbaed48	0.022818223
196	0xbd20a623	-0.03922094
197	0xbd5e5991	-0.054284636
198	0xbd2fb34b	-0.042895596
199	0xbd96dd4f	-0.0736643
200	0x3d627a76	0.05529257
201	0x3d46fa26	0.048578404
202	0xbd49ae0b	-0.049238246
203	0xbcc745b0	-0.024325222
204	0x3bbff820	0.005858436
205	0xbd57a743	-0.052649748
206	0xbcc87e84	-0.02447439
207	0xbd96b927	-0.07359534
208	0xbdad1b6d	-0.08452497
209	0xbd1848af	-0.03717869
210	0xbd773ac6	-0.060358785
211	0xbcf78b22	-0.03021771
212	0xbbf9fe60	-0.007629201
213	0x3d95bbe7	0.0731123
214	0x3d96dd4d	0.073664285
215	0x3da6db63	0.081473134
216	0xbd0781eb	-0.033082884
217	0xbd303613	-0.04302032
218	0xbd3b0e36	-0.04566785
219	0x3db26b3d	0.0871186
220	0xbda58c49	-0.08083398
221	0x3d55d5ae	0.052205734
222	0x3d510d2a	0.051037945
223	0xbc9ee5d0	-0.019396693
224	0xbcf9ace2	-0.030477945
225	0xbd641f57	-0.05569395
226	0x3d7473c6	0.059680723
227	0xbd310619	-0.043218706
228	0x3cd62494	0.026140489
229	0xbd343918	-0.04399976
230	0xbd75017a	-0.05981586
231	0x3c82159c	0.015879445
232	0x3c4da728	0.01255206
233	0x3d0e192a	0.034691967
234	0x3d279932	0.040917583
235	0xbd91c9cc	-0.07118568
236	0x3da947b9	0.08265633
237	0xbd8fc1d2	-0.0701939
238	0xbbf6a7d0	-0.007527329
239	0x3d20c1e6	0.039247416
240	0x3d9eff43	0.07763531
241	0xbd53142c	-0.05153291
242	0x3d485a32	0.048914142
243	0x3c4c71e0	0.012478322
244	0xbd70abbd	-0.058757532
245	0x3d266bbe	0.040630095
246	0x3d85a8df	0.0652635
247	0xbca9a2a8	-0.020707443
248	0x3c35c2e8	0.011093833
249	0x3dac5001	0.08413697
250	0xbcc1a3a0	-0.023637593
251	0xbd948f5e	-0.072539076
252	0xbd1dec0e	-0.038555197
253	0x3ce81cd4	0.028334059
254	0x3d5d5cf6	0.054043733
255	0x3a0b6080	0.0005316809

fc2.bias f4 [128]
0	0xbb66b3a0	-0.003520228
1	0xbd999134	-0.074983984
2	0xbd8f9614	-0.07011047
3	0x3d51b00a	0.051193275
4	0x3dac9b77	0.0842809
5	0xbd50ad79	-0.050946686
6	0xbd229c3a	-0.03969977
7	0xbc7e1658	-0.015508257
8	0x3d739f4a	0.05947808
9	0x3c691808	0.014226921
10	0xbd3340e0	-0.04376304
11	0x3ca8c680	0.020602465
12	0xbd48243a	-0.048862673
13	0xbadea4c0	-0.0016986355
14	0x3d0e9380	0.034808636
15	0xbd248c62	-0.040172942
16	0x3d3e3e06	0.04644587
17	0x3d96a12f	0.07354962
18	0xbd536cfe	-0.051617615
19	0xbcae8ff4	-0.021308877
20	0x3d661afe	0.056178086
21	0xbd7a2032	-0.06106586
22	0xbd811a92	-0.06303896
23	0x3d739c42	0.05947519
24	0xbd908d77	-0.07058232
25	0xbd6bf904	-0.057610527
26	0xbd5b2309	-0.05350021
27	0xbd1f4608	-0.038885146
28	0xbd64f031	-0.055893127
29	0xbd81b9c4	-0.0633426
30	0x3d4c1b4e	0.049830727
31	0xbd6a61ee	-0.0572223
32	0xbd969075	-0.07351772
33	0xbd307957	-0.04308447
34	0x3b6f5020	0.0036516264
35	0xbd1382bd	-0.036013354
36	0xbdaa7ac9	-0.08324201
37	0xb93c8200	-0.00017977506
38	0xbd1707f2	-0.03687281
39	0x3da4d235	0.08047906
40	0xbd36c81e	-0.04462444
41	0xbc21d698	-0.009877823
42	0x3d94ee93	0.07272067
43	0x3da906c1	0.08253241
44	0xbd5b55bf	-0.05354857
45	0xbd648df8	-0.055799454
46	0x3d1d0072	0.038330503
47	0x3d24374e	0.040091805
48	0x3c20d0f0	0.00981544
49	0x3b6422a0	0.0034810677
50	0x3d602ed6	0.054732166
51	0x3d8c0f23	0.068388246
52	0x3d0d4702	0.034491546
53	0xbd8f43b0	-0.06995332
54	0xbd263d9e	-0.040586106
55	0x3cd5c5c0	0.026095271
56	0xbd1f556c	-0.038899824
57	0x3d0a8e72	0.033827253
58	0x3d83e23f	0.064396374
59	0x3d8cd90d	0.06877337
60	0x3c5d9808	0.013525017
61	0xbda8025e	-0.082035765
62	0xbd5b5f7e	-0.053557865
63	0xbd23ec64	-0.04002036
64	0xbc6a78f8	-0.014311068
65	0x3bea1e30	0.007144712
66	0x3ce44a78	0.02786754
67	0x3ba15070	0.004922919
68	0x3c806944	0.015675195
69	0xbd9e7456	-0.07737033
70	0xbd3e4148	-0.046448976
71	0xbbde8650	-0.0067909136
72	0xbca3de98	-0.020003602
73	0xbc508fe0	-0.012729615
74	0xbc45fb78	-0.012083881
75	0xbc4ab508	-0.012372263
76	0x3d95d2af	0.07315575
77	0xbcff5fe4	-0.031173654
78	0xbd89e15e	-0.067324385
79	0xbd8abdc3	-0.067744754
80	0x3ce3e908	0.027821079
81	0x3d8b3091	0.06796373
82	0x3c211308	0.009831198
83	0xbd896e09	-0.06710441
84	0xbc9d70a0	-0.019218743
85	0x3d4e8532	0.050419994
86	0x3db1f079	0.08688445
87	0x3d818abb	0.06325289
88	0x3da27197	0.07931822
89	0xbd978eea	-0.074003056
90	0x3d97c835	0.07411233
91	0x3b2883e0	0.002571337
92	0x3da0ec15	0.07857529
93	0xbd8ec206	-0.06970601
94	0x3ccf0d4c	0.025274895
95	0xbd2aa4a0	-0.041660905
96	0x3d88a811	0.06672681
97	0xbd248afe	-0.040171616
98	0x3db102cf	0.08643114
99	0x3cf9b854	0.030483402
100	0x3c041678	0.008061998
101	0xbd52dc6c	-0.051479742
102	0x3cd3fd88	0.025877729
103	0xbcdec868	-0.02719517
104	0xbcb069a8	-0.021534756
105	0x3d8afecb	0.06786879
106	0xbd1777f2	-0.036979623
107	0x3d7be10a	0.06149391
108	0x3d20acce	0.0392273
109	0x3cb8fbcc	0.022581004
110	0xbd135b8a	-0.03597597
111	0x3d8fbfc7	0.070190005
112	0xbc9dcdd8	-0.019263193
113	0xbcd629ec	-0.026143037
114	0x3d2ee71a	0.042700864
115	0x3ccf2980	0.025288343
116	0xbd0ca10a	-0.034333266
117	0x3bbb3390	0.005712934
118	0x3cc1b604	0.023646362
119	0xbdb0062b	-0.085949264
120	0xbc854c04	-0.016271599
121	0x3d6bdea6	0.05758538
122	0x3d815121	0.06314302
123	0x3d16e01a	0.036834814
124	0x3b954710	0.0045555905
125	0x3d78a8c6	0.06070783
126	0xbd6ca7ae	-0.0577771
127	0xbd9ec506	-0.07752423

fc3.weight f4 [3, 128]
0	0x3db19f0b	0.08672913
1	0xbd8108bf	-0.06300496
2	0x3d6a9e12	0.057279654
3	0xbd27d6fd	-0.040976513
4	0xbbd70e00	-0.006562948
5	0xbca12e28	-0.01967533
6	0x3daa858f	0.083262555
7	0x3cd84488	0.026399866
8	0xbd906a66	-0.07051544
9	0x3d9e9ca3	0.0774472
10	0x3ca8bde8	0.020598367
11	0x3d1873d6	0.037219845
12	0xbbe51150	-0.006990589
13	0x3d752962	0.05985392
14	0x3d7e861a	0.062139608
15	0xbc7cf280	-0.015438676
16	0xbcd2d9a8	-0.025738552
17	0x3d70c362	0.05878008
18	0x3da506ad	0.08057914
19	0xbca7f6dc	-0.020503454
20	0x3d901f11	0.070371754
21	0xbd83ff65	-0.06445197
22	0xbbdff500	-0.006834626
23	0x3b409380	0.0029384792
24	0x3d335df2	0.043790765
25	0x3da13bf1	0.07872761
26	0x3d649aa2	0.05581153
27	0xbda3e6fa	-0.0800304
28	0x3d9da2ab	0.07697042
29	0x3d84c163	0.06482198
30	0xbd8fe67a	-0.07026382
31	0x3d33ee1a	0.043928243
32	0x3bedd5b0	0.0072581396
33	0xbd8355e6	-0.06412868
34	0x3d0230a4	0.03178467
35	0xbd2d51d0	-0.04231435
36	0xbceb6a1e	-0.028737124
37	0x3d7e6efa	0.062117554
38	0xbc1a6580	-0.009423614
39	0x3d23e772	0.040015645
40	0x3da68fb5	0.08132879
41	0x3d2a9e96	0.041655146
42	0xbcb4b2dc	-0.022057943
43	0x3bcfed80	0.006345451
44	0xbdb1d68a	-0.08683498
45	0xbd3332b6	-0.043749534
46	0x3d3149a6	0.043283127
47	0x3b9d5e10	0.004802473
48	0xbda85e43	-0.08221104
49	0xbd9429d0	-0.072345376
50	0xbbef1330	-0.0072959885
51	0xbce1d9b6	-0.027569633
52	0xbbf5da00	-0.0075027943
53	0x3c031148	0.007999726
54	0x39d4e600	0.00040607154
55	0xbd74dfe4	-0.05978383
56	0x3d66f4e2	0.056385882
57	0xbcae7b0c	-0.021298908
58	0xbd08793d	-0.033318747
59	0xbd859a4d	-0.06523571
60	0xbd04ce2b	-0.03242318
61	0x3bc27f20	0.0059355646
62	0xbdb37101	-0.08761788
63	0x3cabe644	0.020983823
64	0xbd696510	-0.056981146
65	0x3d3d3152	0.046189614
66	0xbd61079a	-0.05493889
67	0x3d45a4a6	0.048252724
68	0x3d812b89	0.06307132
69	0x3daffc8d	0.08593092
70	0x3cf72da4	0.03017313
71	0x3db4f64f	0.08836042
72	0xbd83aba6	-0.06429224
73	0xbcc3d8ec	-0.023907147
74	0xbd6f7c04	-0.05846788
75	0xbd5ede6f	-0.054411348
76	0xbc365558	-0.011128746
77	0xbd76c2c6	-0.060244344
78	0xbc56db00	-0.013113737
79	0xbd94516f	-0.07242095
80	0x3d39478e	0.045234255
81	0x3cc38958	0.023869202
82	0x3c522800	0.01282692
83	0x3d64c96a	0.055856146
84	0x3db3d949	0.08781678
85	0xbda83d7b	-0.082148515
86	0xbc97e2a8	-0.018540695
87	0xbd8c9abe	-0.06865452
88	0x3d9ce1a5	0.07660226
89	0xbd8598df	-0.065232985
90	0x3c2c9828	0.010534324
91	0xbd861efc	-0.065488786
92	0x3daf850b	0.08570298
93	0x3d8085b9	0.062755056
94	0x3d856fc1	0.06515456
95	0xbd8d6406	-0.069038436
96	0x3d7dd412	0.061969824
97	0xbd6f4ee4	-0.058424845
98	0xbcfd3354	-0.030908264
99	0x3d5633aa	0.052295364
100	0x3ce788bc	0.028263442
101	0xbd2e6ddc	-0.04258524
102	0xbc8b378c	-0.01699426
103	0xbd964fe6	-0.07339458
104	0x3d2989ca	0.04139117
105	0xbc670090	-0.014099255
106	0x3b44a860	0.0030007586
107	0xbd890c6b	-0.06691822
108	0xbc28c9b8	-0.010302
109	0xbd10640d	-0.035251666
110	0x3cbdee9c	0.023185067
111	0x3cc1dcd0	0.023664862
112	0x3c074380	0.008255839
113	0x3d81b863	0.06333997
114	0xbd4b648c	-0.049656436
115	0x3d101228	0.035173565
116	0xbbc50f80	-0.0060138106
117	0x3d10240c	0.035190627
118	0xbd8c9e64	-0.06866148
119	0x3d924963	0.07142904
120	0x3db0bf21	0.08630205
121	0xbd6e6c7e	-0.058208935
122	0xbba75cd0	-0.0051074997
123	0x3d9f090d	0.07765398
124	0xbd629a55	-0.055322964
125	0xbd864b74	-0.0655736
126	0x3cfd2ba4	0.030904599
127	0xbd509651	-0.050924603
128	0xbb7cf260	-0.0038596615
129	0x3d178396	0.036990725
130	0x3d8e0325	0.069341935
131	0xbcf46cc4	-0.02983702
132	0x3da56a1d	0.0807688
133	0xbd954e70	-0.072903514
134	0x3d87ccaf	0.06630837
135	0xbca92458	-0.020647213
136	0x3daef137	0.08542102
137	0x3c141098	0.009037159
138	0xbd70d866	-0.058800124
139	0xbb13fd40	-0.0022581369
140	0xbc4a0dc0	-0.01233238
141	0x3be8edf0	0.0071084425
142	0xbda15eee	-0.078794345
143	0x3d887a69	0.06663973
144	0x3ae88380	0.0017739385
145	0x3c7ebda0	0.01554814
146	0x3da8463d	0.08216522
147	0x3c88cbc0	0.016698718
148	0x3d90fd37	0.07079547
149	0x3cb976bc	0.022639625
150	0xbd92315a	-0.07138319
151	0xbd61f711	-0.05516726
152	0x3d85e99b	0.06538697
153	0xbcd5488e	-0.026035573
154	0xbc9e6a74	-0.01933787
155	0x3c799348	0.0152328685
156	0x3d8272e1	0.06369568
157	0xbd4a7424	-0.049427167
158	0x3d1f427a	0.038881756
159	0xbda1dd4d	-0.07903538
160	0xbda7ec02	-0.08199312
161	0x3cbc7910	0.023006946
162	0xbd84c61f	-0.06483101
163	0x3da33703	0.07969477
164	0x3dae492b	0.085100494
165	0x3cc79e90	0.0243676
166	0x3d7e5faa	0.06210295
167	0x3d80e8bb	0.0629439
168	0xbc9bd7a0	-0.019023716
169	0x3b806f80	0.003919542
170	0xbc959044	-0.018257268
171	0x3b785560	0.0037892684
172	0xbdab0922	-0.08351351
173	0xbc1a5100	-0.009418726
174	0x3d91a5e9	0.07111723
175	0xbc8ad290	-0.016946107
176	0x3db2ae33	0.08724632
177	0x3d6d0b46	0.05787208
178	0xbd99c32d	-0.0750793
179	0x3d31535e	0.043292396
180	0xbac09500	-0.0014692843
181	0x3d32245a	0.0434917
182	0x3d7dae8e	0.061934046
183	0xbce7dd32	-0.028303716
184	0xbcbb545c	-0.022867374
185	0x3c860860	0.016361415
186	0x3c5d2ce8	0.013499476
187	0x3cbef78c	0.023311399
188	0x3b8b6670	0.004254155
189	0x3c1c3c08	0.009535797
190	0xbd89ce91	-0.067288525
191	0x3da7b4cd	0.08188782
192	0x3da2f4a1	0.079568155
193	0xbd82ab7e	-0.06380366
194	0x3d9b316d	0.075777866
195	0xbda0ef57	-0.078581505
196	0xbda575af	-0.08079087
197	0x3d8db6b7	0.06919616
198	0xbd0f18d9	-0.034935806
199	0xbd0e04db	-0.0346726
200	0x3d6bb7d6	0.057548366
201	0x3cfa7828	0.030574873
202	0xbd880484	-0.06641486
203	0x3b3521a0	0.002763845
204	0xbcee8186	-0.029114496
205	0xbd0d42ef	-0.03448766
206	0x3cadd4f4	0.021219708
207	0x3d969cd1	0.07354129
208	0x3d876829	0.06611664
209	0x3d53c5d6	0.051702343
210	0xbd0e60b1	-0.03476018
211	0x3d82e887	0.06392007
212	0x3bc5f960	0.0060416907
213	0xbd6ab468	-0.057300955
214	0xbcc92500	-0.024553776
215	0xbd0fbb8d	-0.03509097
216	0x3d7df7a2	0.06200374
217	0xbd722051	-0.05911285
218	0xbd9887ce	-0.07447778
219	0x3db27163	0.08713033
220	0xbd14620d	-0.03622632
221	0x3d1cb2fa	0.038256623
222	0xbc742f90	-0.014903918
223	0x3d8ef653	0.06980576
224	0xbbae8f20	-0.0053271204
225	0xbd1a0df4	-0.037610963
226	0x3d9f5675	0.07780162
227	0x3cd2e30c	0.02574303
228	0xbd1cb78f	-0.038260993
229	0x3cf22efc	0.02956342
230	0x3b75f400	0.0037529469
231	0xbcc81bec	-0.024427377
232	0x3b5f54c0	0.0034077615
233	0xbda21756	-0.07914607
234	0xbd8083f8	-0.06275171
235	0x3da4a433	0.08039131
236	0xbcbcc83c	-0.023044698
237	0xbd2796cc	-0.040915295
238	0x3da9aef1	0.082853206
239	0x3d8cca39	0.068745084
240	0xbd14f5d9	-0.03636727
241	0xbc27d7b0	-0.010244295
242	0x3ccb355c	0.024805717
243	0x3c64d1b0	0.013966009
244	0x3da85def	0.082210414
245	0xbd28c768	-0.041205794
246	0x3caf3f90	0.021392614
247	0x3cee6040	0.02909863
248	0x3d311d82	0.04324103
249	0x3d550e56	0.052015625
250	0xbce9d06a	-0.028541762
251	0xbd97d250	-0.07413161
252	0xbc7ed9a8	-0.015554823
253	0x3d13ca12	0.03608138
254	0xbd0f4e99	-0.034987066
255	0x3d81ad43	0.06331875

fc3.bias f4 [3]
0	0x3d2f284a	0.042763032
1	0x3d385252	0.04500038
2	0xbd999cb6	-0.07500593
